Model: "sequential"
_________________________________________________________________
 Layer (type)                Output Shape              Param #   
=================================================================
 rescaling (Rescaling)       (None, 240, 240, 3)       0         
                                                                 
 conv2d (Conv2D)             (None, 238, 238, 16)      448       
                                                                 
 max_pooling2d (MaxPooling2D  (None, 119, 119, 16)     0         
 )                                                               
                                                                 
 conv2d_1 (Conv2D)           (None, 117, 117, 32)      4640      
                                                                 
 max_pooling2d_1 (MaxPooling  (None, 58, 58, 32)       0         
 2D)                                                             
                                                                 
 conv2d_2 (Conv2D)           (None, 56, 56, 64)        18496     
                                                                 
 max_pooling2d_2 (MaxPooling  (None, 28, 28, 64)       0         
 2D)                                                             
                                                                 
 dropout (Dropout)           (None, 28, 28, 64)        0         
                                                                 
 flatten (Flatten)           (None, 50176)             0         
                                                                 
 dropout_1 (Dropout)         (None, 50176)             0         
                                                                 
 dense (Dense)               (None, 240)               12042480  
                                                                 
 dense_1 (Dense)             (None, 15)                3615      
                                                                 
=================================================================
Total params: 12,069,679
Trainable params: 12,069,679
Non-trainable params: 0
_________________________________________________________________
Loading dataset for user  0 ...


Loading directory c0
19
Loading directory c1
20
Loading directory c2
20
Loading directory c3
…
